models/UM/model_seed_6.pkl (torch_old, 41569 bytes, 2 tensors)

conv_diverse_weight f4 [5, 2048, 1]
0	0x3b6f7c1b	0.0036542478
1	0xbbd2460c	-0.0064170416
2	0xbbded86d	-0.0068007023
3	0xbcc7ba6c	-0.024380885
4	0x3aa904e8	0.0012895139
5	0xbc4ee1de	-0.012627093
6	0xbc5984e0	-0.013276309
7	0xbbc14943	-0.005898626
8	0xbc113b8b	-0.008864294
9	0xbb2748dd	-0.0025525608
10	0xbbf93832	-0.007605576
11	0xbb59ded1	-0.0033244381
12	0xbc53ab13	-0.012919205
13	0x3b18530e	0.0023242864
14	0xb956232c	-0.00020421733
15	0xbc0250a7	-0.007953799
16	0x3bd71aa5	0.0065644556
17	0x39ae5d83	0.00033257538
18	0xbcb178e5	-0.021664092
19	0xbc6070ba	-0.013698751
20	0xbb84f084	-0.004056992
21	0xbb734ae6	-0.00371235
22	0xba4c96ed	-0.0007804472
23	0xba03f81c	-0.00050342246
24	0xbb8f8d5f	-0.0043808664
25	0xbbd66108	-0.0065423287
26	0xbc949d72	-0.018141482
27	0x3ba1a7e7	0.0049333456
28	0xbbf4b624	-0.007468002
29	0xbc00708d	-0.007839334
30	0xbca7aa4f	-0.020466952
31	0x3c1a39d1	0.009413199
32	0x3981a83e	0.00024730148
33	0x39a5a168	0.0003159151
34	0x3b13e794	0.0022568451
35	0xbc2d3d8c	-0.010573756
36	0x3a9d7ed7	0.0012015951
37	0xbba54c04	-0.005044462
38	0xbc557621	-0.013028652
39	0x3b185baf	0.0023248007
40	0x3adb24d6	0.0016719352
41	0xbc01e36f	-0.00792776
42	0x3b7be2ab	0.0038434665
43	0xbbd0052e	-0.0063482737
44	0x39a2c723	0.00031047416
45	0xbc171744	-0.009221856
46	0xbbd75424	-0.0065713096
47	0x3bd05958	0.006358307
48	0xbc39a24e	-0.0113302
49	0x3a4257db	0.0007413604
50	0xba1bab37	-0.0005938294
51	0xbc3b90ab	-0.011448066
52	0xbad7c841	-0.0016462879
53	0x3a388610	0.000703902
54	0x3ab5dd3d	0.0013875138
55	0xbb6b3c81	-0.0035894217
56	0x3be1b4a1	0.0068879877
57	0xbc08ae7a	-0.00834238
58	0xbc149225	-0.009068047
59	0xbc39cf20	-0.011340886
60	0xbc02fe11	-0.007995144
61	0xbc8064df	-0.0156731
62	0x3b020740	0.0019840747
63	0x3b3a3375	0.0028412018
64	0xbc2cb5d3	-0.010541397
65	0xbb70dcb9	-0.0036752655
66	0xbc476e42	-0.012172284
67	0x3c8c5041	0.017128112
68	0xbc616940	-0.013758004
69	0xbbc037b5	-0.005866016
70	0xbca31731	-0.01990852
71	0xb963d9f5	-0.00021729602
72	0xbbcd065d	-0.006256862
73	0xbbbe576a	-0.0058087604
74	0xbb1b5637	-0.002370251
75	0x3afbc5e9	0.0019208762
76	0xbc4bdef5	-0.012443294
77	0xbaa3e635	-0.001250452
78	0xbc7d1045	-0.0154457735
79	0xbc281f7a	-0.010261411
80	0xbc863499	-0.016382502
81	0x39f26b0f	0.00046237602
82	0xbc431f8a	-0.011909375
83	0xba5f0146	-0.00085069647
84	0xbb4c1f40	-0.0031146556
85	0x3c0317e3	0.0080013005
86	0xbb4e244c	-0.003145474
87	0xbc29da98	-0.010367058
88	0x3b108b55	0.0022055705
89	0xbca1d470	-0.019754618
90	0xbc4908b8	-0.012270145
91	0xbbffeb2a	-0.007810016
92	0xbc4b1609	-0.01239539
93	0x3b1a0c29	0.0023505783
94	0xbc66896e	-0.014070852
95	0x3b722db3	0.0036953508
96	0xbc07cec4	-0.008289043
97	0xbc961d12	-0.018324409
98	0xbc6c485a	-0.014421547
99	0xbbdcd764	-0.0067395438
100	0xbc747e00	-0.014922619
101	0xba2041bc	-0.0006113311
102	0xbc225d98	-0.00991001
103	0xbb8a144b	-0.004213845
104	0xbc7ff62a	-0.015622655
105	0x3bd42636	0.0064742817
106	0xbbe47c74	-0.006972844
107	0xbbd56f49	-0.0065135104
108	0xbbf6fc73	-0.0075374185
109	0x3c01f581	0.007932068
110	0xbcae8d86	-0.021307718
111	0xbb25ee28	-0.0025318954
112	0x3ad2323f	0.0016036703
113	0xbc5d612f	-0.01351194
114	0xbaae9283	-0.001331881
115	0x3909408c	0.00013089384
116	0xbc24c2f8	-0.01005625
117	0xbb995899	-0.004679751
118	0xbafe5fd8	-0.0019407226
119	0xbc843482	-0.016138319
120	0xbadfa98f	-0.0017064082
121	0xbc7beb13	-0.01537587
122	0xbc00ce34	-0.007861663
123	0xbb8a4749	-0.0042199236
124	0xbc652381	-0.013985516
125	0xbc0b5692	-0.008504527
126	0x3be5f15f	0.007017299
127	0x3b8e8771	0.004349642
128	0xbc7e5ba4	-0.0155247785
129	0xbc056c71	-0.00814353
130	0xbbe7e0e0	-0.0070763677
131	0xbc64f798	-0.013975047
132	0xbc2a9ba6	-0.010413086
133	0xbc6c4151	-0.0144198695
134	0x3bd6e815	0.006558428
135	0xbb78102f	-0.0037851443
136	0x3bb033b0	0.0053772554
137	0xbb847697	-0.0040424573
138	0x3a89ae0f	0.0010504144
139	0xba905fa1	-0.0011014828
140	0xbb844021	-0.004035965
141	0xbb0bee2a	-0.0021351674
142	0xbb9d0c3f	-0.0047927196
143	0xbb9fcf2f	-0.004876993
144	0xbb839517	-0.0040155756
145	0xbc1ade5e	-0.0094524305
146	0xbb384f72	-0.0028123525
147	0xbc847780	-0.016170263
148	0xbbe02fa8	-0.0068416186
149	0xbc2e17b5	-0.010625769
150	0x3b2be8a4	0.0026231194
151	0xbc1fa2ec	-0.009743433
152	0xbc3c22b6	-0.011482885
153	0xbba644f4	-0.005074138
154	0xbc5b39ef	-0.013380512
155	0xbc378c9a	-0.011202956
156	0x3b2039c4	0.0024448493
157	0x3a10431a	0.0005503163
158	0xbbcb85a5	-0.006211
159	0xbc1d4c75	-0.009600748
160	0xbbeb055d	-0.00717227
161	0xbbe90c86	-0.0071120886
162	0xbc37f201	-0.011227132
163	0xbc1de2e3	-0.009636614
164	0xbc45737a	-0.012051458
165	0xbc8ecda7	-0.017432047
166	0x3ac93896	0.0015351947
167	0xbc203b90	-0.009779826
168	0x3c9420bf	0.01808202
169	0x3c4b6c29	0.012415924
170	0xbc815315	-0.015786687
171	0xbb7d899e	-0.0038686763
172	0x3bfd8320	0.0077365786
173	0x3be93811	0.0071172793
174	0xbc04bda2	-0.008101853
175	0x3b98cc40	0.0046630204
176	0xbbf47a5c	-0.0074608754
177	0xbc5cea50	-0.013483599
178	0x3b27ed30	0.0025623553
179	0x3bbfe680	0.005856335
180	0xbbcb4feb	-0.0062045953
181	0xbc73bb0a	-0.014876137
182	0xbb63f1a4	-0.003478148
183	0x3c31cb0a	0.010851631
184	0x3b223f5b	0.0024757
185	0xbbda9e39	-0.0066716936
186	0xbc5d1e95	-0.013496061
187	0x3a38badc	0.0007046887
188	0xbc4f0a6e	-0.012636764
189	0xbcca465e	-0.024691757
190	0x3b512913	0.0031915351
191	0xbc753b8b	-0.014967809
192	0x38055a3e	3.1793716e-05
193	0xbb38c002	-0.0028190617
194	0x3bb479d3	0.0055076866
195	0xbc1959a5	-0.009359752
196	0xbbca4db1	-0.0061738123
197	0x3b429c5a	0.0029695244
198	0xbbf7b3cb	-0.007559275
199	0xbc289943	-0.010290447
200	0x3a46035a	0.00075536
201	0xbc05431b	-0.008133675
202	0xbbeae1f1	-0.0071680476
203	0xbc037157	-0.008022628
204	0xbba2b5b4	-0.0049655084
205	0xbc78fabf	-0.015196501
206	0x3bc0f3a5	0.0058884197
207	0xbc42f90c	-0.011900198
208	0xbba9f802	-0.0051870355
209	0xbb9d6d6a	-0.004804303
210	0xbc684d8a	-0.014178643
211	0x3bb332dd	0.00546871
212	0xbca366b9	-0.019946443
213	0xbc55d24d	-0.013050628
214	0xbcbfb092	-0.023399625
215	0xbb370dc6	-0.0027931794
216	0xbcae38b1	-0.021267267
217	0xbb362f6b	-0.002779926
218	0xbc24bcd7	-0.010054789
219	0x3b142750	0.002260644
220	0xbbd22cd5	-0.006414036
221	0x3a9619c4	0.001145177
222	0x3b2dc03a	0.002651228
223	0xbb9783a1	-0.0046238457
224	0xbc28a49d	-0.010293153
225	0xbc18a7e9	-0.009317377
226	0x3af081c5	0.0018349221
227	0xbb56a47e	-0.0032751854
228	0xbc879a5b	-0.016553095
229	0xbcab3133	-0.020897483
230	0xbbb87192	-0.005628773
231	0xbc8ea4e2	-0.017412607
232	0xbc88631a	-0.016648818
233	0xbc6d0898	-0.014467381
234	0xbbb707e3	-0.005585657
235	0xbb465a44	-0.0030266205
236	0xbc2da7d1	-0.010599093
237	0xbc862b25	-0.016377995
238	0xbb65647e	-0.0035002525
239	0x39f40690	0.00046544196
240	0x3c3fe0fa	0.011711353
241	0x3b7bcb8f	0.003842089
242	0x3a32e657	0.00068244844
243	0xbcadfccc	-0.021238707
244	0xba8c418e	-0.0010700689
245	0xbb29c779	-0.0025906248
246	0xbc2e42b8	-0.010636024
247	0xbb059407	-0.002038242
248	0xbb1d7658	-0.0024026837
249	0xbc34bdd4	-0.011031587
250	0xbc92315c	-0.017845802
251	0xbc035b51	-0.008017377
252	0xbbf2a912	-0.0074054087
253	0xbc07e76b	-0.00829492
254	0xbc80204e	-0.015640404
255	0x38a71c04	7.968399e-05

kernel f4 [5, 1, 2]
0	0xbf800000	-1.0
1	0x3f800000	1.0
2	0xbf800000	-1.0
3	0x3f800000	1.0
4	0xbf800000	-1.0
5	0x3f800000	1.0
6	0xbf800000	-1.0
7	0x3f800000	1.0
8	0xbf800000	-1.0
9	0x3f800000	1.0
